savez/rnn_model.pth (torch, 498795 bytes, 7 tensors)

rnn.Wx.weight f4 [256, 128]
000000 a3 02 fa bd ff cf 80 bd b7 d5 36 bd 8a 60 66 bc
       -0.12207534 -0.06289672 -0.044637408 -0.014061103
000010 73 bc 3f bd 3c 45 fa bd 02 00 bb 3b 7e 29 db bb
       -0.04681058 -0.12220237 0.005706788 -0.006688296
000020 d3 0a e9 ba 5c 37 ed bd 40 e2 20 bc ff 1d ea 3a
       -0.0017779715 -0.115828246 -0.009819567 0.0017861723
000030 8e 40 c7 bd 18 1c 39 3d 0b b3 d9 3d 34 08 87 3d
       -0.0972911 0.045192808 0.10629853 0.065933615
000040 5e 4e 81 3c 31 94 81 3d 50 dd 22 bd f4 a0 65 bd
       0.015784439 0.063270934 -0.03976184 -0.0560617
000050 81 5f 31 3d 56 36 57 bc b0 b3 de 3d 4a d7 f9 3d
       0.04330397 -0.013135513 0.108741164 0.12199266
000060 11 14 c6 bd ad e1 10 3d 69 24 72 3d 9d 56 96 3d
       -0.09671796 0.03537147 0.059116755 0.07340739
000070 66 ac 73 bd 17 a5 50 3c 55 8e 70 bd 73 52 47 bd
       -0.059490584 0.012734673 -0.05872949 -0.048662614
000080 41 8c ba bd 55 90 5f bb 0a d6 ee bc 43 ee e9 bb
       -0.091087826 -0.0034113128 -0.029154796 -0.0071389987
000090 38 90 7a 3d e8 e1 fc bb 72 72 4a bc aa 49 f2 bc
       0.061172694 -0.00771736 -0.012356387 -0.029576141
0000a0 00 17 44 3d 17 f8 96 3d 79 ca d2 bd af b9 6a 3d
       0.047873497 0.07371538 -0.10292525 0.057305988
0000b0 ed a7 d8 3d 77 ba 5c bd 5b e2 18 bc 90 58 53 3d
       0.10578904 -0.053888764 -0.009331311 0.05159813
0000c0 48 5f 55 3d 4e 17 5b 3d 60 05 49 3d df 99 a1 bd
       0.05209282 0.053489022 0.04907739 -0.07890677
0000d0 4c 04 a2 3d 6e 3d 3f 3e 7c ae e5 3d 3b 65 18 3d
       0.07910976 0.18675777 0.11214921 0.037205916
0000e0 ac 77 15 bd ba 83 08 3b 3e 1e 63 bd 9e 76 ad 3d
       -0.03649108 0.0020830468 -0.055448763 0.0846989
0000f0 ff a3 92 bd 14 38 03 be ca 41 eb bd 96 09 9e 3d
       -0.07160186 -0.12814361 -0.11487158 0.07716672
000100 94 31 65 3d 01 75 c5 bd 98 29 90 bd d5 ba 64 bd
       0.055955485 -0.09641457 -0.070391834 -0.05584224
000110 cc e0 f1 3c 12 fa a2 bb bc 31 81 bd 6d f9 47 3d
       0.029526137 -0.0049736584 -0.06308314 0.048821855
000120 d3 69 b5 bd 15 0b 1a 3e 9e ac cc bd 87 fc 5f bd
       -0.08858075 0.1504329 -0.099938616 -0.05468419
000130 a4 4a 25 3d e6 89 25 bd b5 d7 62 bd 82 93 1b 3d
       0.040354386 -0.040414713 -0.055381496 0.03798247
000140 42 ef 57 3d 20 a8 60 bd 4d f8 37 3c 5a 3c ca bd
       0.05271841 -0.054847836 0.011228633 -0.098747924
000150 82 fe 9d 3d 58 e3 16 3d eb 2f 26 3c c4 30 ca bd
       0.07714559 0.036837906 0.0101432605 -0.098725826
000160 05 a1 ec bd b0 ab d3 bc e0 d6 53 bd b9 2e a4 3d
       -0.115541495 -0.025838703 -0.051718593 0.08016724
000170 bc 34 2d bd fd ab dd bb c8 ee 06 3d 80 d2 69 3d
       -0.04228662 -0.0067648874 0.032942563 0.057085514
000180 65 65 84 3d 40 79 24 3d e1 95 fd bd f2 e7 80 3c
       0.06464652 0.040154696 -0.12382103 0.0157356
000190 7f 52 64 bd b0 9b 57 3d ed a9 4f bd 87 8c 4e 3d
       -0.055742737 0.05263871 -0.050699163 0.050426986
0001a0 f2 63 99 bd 7f d5 ab bc 83 22 3a bd 95 26 9c b9
       -0.07489766 -0.020975826 -0.04544307 -0.00029783385
0001b0 0f 7b a9 bd 5d c1 86 b9 a4 1f a9 bb ca 41 6d 3d
       -0.08275425 -0.0002570254 -0.0051612426 0.05792407
0001c0 fb 34 36 3c 1c 46 aa bd e7 10 84 bc f6 be 14 3d
       0.01112103 -0.083141536 -0.01612134 0.036314927
0001d0 62 4a d0 bc df 51 59 39 e1 74 62 3d 2b 8a 98 3b
       -0.025426093 0.00020725232 0.055287246 0.004655143
0001e0 c2 c8 6e bd 9a b0 c5 bd c8 7c 59 bd b6 4c 69 3d
       -0.058296926 -0.09652825 -0.053097516 0.056957923
0001f0 e3 29 de 3d c8 40 f4 3c 72 1c 83 bd 2f fd c5 3d
       0.10847833 0.029816046 -0.0640191 0.096674316
000200 b7 b6 d2 3d da a3 d1 3d e8 84 26 3d 00 bd 90 bd
       0.10288756 0.1023633 0.040654093 -0.07067299
000210 17 87 25 3d 43 69 ee 3d c8 af c6 3c 26 f1 c3 3d
       0.040412035 0.11641171 0.02425374 0.0956748
000220 3c cc 96 3d 13 b6 d4 bd b8 5a a5 bd 1b 9b 82 bd
       0.07363173 -0.103862904 -0.08073944 -0.0637724
000230 92 26 82 bd 22 d8 75 3d 9b f4 9f bd d0 31 57 bd
       -0.06355013 0.060020573 -0.07810327 -0.05253774
000240 f6 a2 25 3d df f8 30 3d 0e a2 35 bd 60 e6 57 bd
       0.040438615 0.043206092 -0.044344 -0.052709937
000250 08 c4 b4 3a 72 be d5 3c ac 5f 14 bc 12 49 24 3c
       0.0013791332 0.026091788 -0.009056013 0.010027187
000260 19 e0 b7 3d d2 d9 8a bc 92 1c 10 bd 8d ef 58 3d
       0.0897829 -0.016949568 -0.035183497 0.05296283
000270 9b b5 d9 3c 6e ef 91 3c 79 0b 03 3b de 50 f4 3d
       0.026575854 0.017814364 0.0019995852 0.11929487
000280 4b 0a 20 bc f1 69 1f 3d 49 dd 75 bd d5 b4 b5 3d
       -0.009768079 0.038919393 -0.060025487 0.088723816
000290 39 fc fd 3d 54 d6 54 bd 99 20 cf 3d d6 54 71 3d
       0.12401623 -0.05196221 0.101136394 0.058918796
0002a0 9a 72 82 3c 6c ae b8 bc d4 ff 69 3d dc f5 e1 3d
       0.015923787 -0.022544108 0.057128742 0.11033222
0002b0 74 27 3c 3d 80 b0 34 3d 7f 79 4b 3d a1 2e 84 3d
       0.045936063 0.044113636 0.049676415 0.06454206
0002c0 74 34 33 bd 34 1b eb 3c c8 11 3a bd 0f 79 d5 bc
       -0.043751195 0.028699495 -0.045427114 -0.026058702
0002d0 e6 bf b5 bc 38 df e9 3d f6 79 0d 3d ce 59 06 3d
       -0.02218623 0.11419529 0.03454014 0.03280049
0002e0 7b 4a 8e bd d9 87 22 bd 54 9c 0c bc 4c 83 e2 3d
       -0.069478 -0.039680336 -0.008582193 0.11060199
0002f0 39 12 b3 3d cc 81 a2 bd 0b 71 86 bb 1a 28 dc bd
       0.0874371 -0.07934913 -0.0041028312 -0.10749836
000300 8b 69 d4 bd 74 82 8d 3d 74 61 99 3d af 1d bd 3b
       -0.10371693 0.069096476 0.07489291 0.005771361
000310 b4 20 8f 3c dc 59 4e 3c 0a c9 c3 bd 26 48 93 bd
       0.017471649 0.012594666 -0.095598295 -0.071914956
000320 1a 5f a2 bd 14 fe 70 3d ce fa 89 bd b7 87 4a bd
       -0.079282954 0.058836058 -0.0673729 -0.049445834
000330 12 78 b6 3d da 35 b4 3b 73 59 ed 3c e9 27 fd bd
       0.0890962 0.0054995837 0.028973317 -0.12361128
000340 fc f8 40 bd 1f f1 bd 3c e4 4e d0 bd d4 45 b8 bd
       -0.04711245 0.023186265 -0.10171297 -0.08997694
000350 91 27 0a bc 2e 44 95 bd f9 8e a2 bc b7 d6 e6 bc
       -0.008432285 -0.07288395 -0.019843565 -0.028178556
000360 57 27 a3 bd 9e 17 09 3d ac 3a 61 bc 03 c2 b1 3c
       -0.07966488 0.03346979 -0.013746899 0.021698957
000370 bc 34 d7 3d 0a c4 70 bd 3d d7 ca 3d 42 5b c9 3d
       0.10508105 -0.058780707 0.09904335 0.09831859
000380 14 dc 4b bd 5f bc 5c 3b 19 1c 52 bc 98 1a b4 3d
       -0.04977043 0.0033681614 -0.012824082 0.08794135
000390 55 76 e4 bc 19 c3 1a bd 76 a1 2c bd ee 92 ab bd
       -0.027888456 -0.037783716 -0.04214617 -0.08377634
0003a0 2f df 2e bd 76 bb b9 3d 87 0c 82 bc db 9e 54 3d
       -0.042693313 0.090689585 -0.015875114 0.05190931
0003b0 ce 04 bd 3d 37 b6 f2 bd df 6c 65 bc fe 0a db 3b
       0.09229432 -0.11851161 -0.014003008 0.00668466
0003c0 40 8c 4d 3c 37 65 a4 bd 9f 93 a1 bc 25 42 96 3d
       0.012545645 -0.08027118 -0.019723712 0.07336835
0003d0 12 58 e7 bb e4 78 22 3d 08 c1 4c bd c4 cf b0 3c
       -0.0070600593 0.03966607 -0.049988776 0.021583445
0003e0 86 fa a9 3c f3 04 23 bd de 78 15 3c eb a3 48 bc
       0.020749342 -0.03979964 0.009123055 -0.012246112
0003f0 a6 8b 88 bd 5f 9b a4 3b 98 cb a6 3d 0b 6c 47 bd
       -0.06667261 0.0050234045 0.08144301 -0.048687022

rnn.Wx.bias f4 [256]
000000 12 fc 40 3d 7b 6f 0f 3d 1e 50 ce 3d 56 10 6b bd
       0.047115393 0.035018425 0.10073875 -0.057388626
000010 79 eb ce 3d 7f d5 a1 bd 93 48 dd 3d 81 b1 22 3d
       0.101035066 -0.07902049 0.10804858 0.039720062
000020 e3 6a bf 3d 31 b3 cd bd ea 9c 3a bd 21 20 d7 3d
       0.09346559 -0.10043944 -0.0455598 0.10504175
000030 f8 9f 07 3c 9a a3 aa 3b 94 b8 b4 3c a8 66 81 bd
       0.008277886 0.005207491 0.02206067 -0.06318408
000040 67 e8 57 3c 2e 35 d3 3d e5 d5 cc bd 42 b7 0a 3c
       0.013177968 0.103128776 -0.10001735 0.008466544
000050 54 5d f9 bc 2d 75 ab bd fe 68 e5 bd db 5a 93 3c
       -0.03044001 -0.08371959 -0.11201666 0.01798766
000060 8a ba ba bc 85 d3 01 be 84 41 1e bc 37 ac a3 3d
       -0.022794027 -0.12678345 -0.009659175 0.07991832
000070 c2 3a ba bb b6 ac b8 3d 0d 52 4e 3d 90 8c 3d 3d
       -0.005683274 0.09017317 0.05037122 0.04627663
000080 b4 5c 9e 3d 84 3a 52 bd a2 1d 43 3d 3c 4f ef bd
       0.077325255 -0.051325336 0.047635682 -0.11685035
000090 4b 70 05 be 25 bb 95 bd 77 71 32 3d 9b c1 ee 3c
       -0.13031118 -0.073110856 0.04356524 0.029145053
0000a0 ee b2 91 bd a0 ef 9d 3d 47 31 b1 bd f5 fe 83 bd
       -0.07114206 0.077117205 -0.08651977 -0.064451136
0000b0 60 5e 25 3c c3 2a 86 3c 26 8e 67 bd 6b 82 3a 3d
       0.010093302 0.016377812 -0.056532048 0.045534533
0000c0 6a ab bd 3d be 36 7e bc 51 9c 9c 3d f3 d1 50 3d
       0.0926121 -0.015515981 0.076470025 0.050981473
0000d0 f3 6c f9 3d 74 04 96 3d bc 46 bd 3d b1 e4 8a bd
       0.121789835 0.07325068 0.09242007 -0.06781901
0000e0 04 69 dd bb 38 e9 f1 bc 8b 13 fb bd e0 79 91 3d
       -0.0067569036 -0.029530153 -0.12259587 0.07103324
0000f0 18 1e 1c be af e1 e8 3c 00 9b 5c 3d 66 3f 88 bd
       -0.15245855 0.028427927 0.053858757 -0.06652717
000100 18 6d 60 3d 90 6b e2 3d fe 27 97 bd 41 74 b5 3d
       0.05479154 0.11055672 -0.07380675 0.08860064
000110 00 6b 99 3d 63 f3 b7 3c 8c db a6 3d 09 01 fa 3c
       0.07491112 0.022454923 0.08147344 0.030518072
000120 a7 fc 74 bd 70 11 ff bd e5 f0 4d bb 14 82 ba 3c
       -0.05981126 -0.12454498 -0.0031424102 0.022767104
000130 a5 f5 71 3d 65 90 a7 3d 12 5b ac 3d 35 bc e4 3d
       0.059072156 0.08181838 0.08415808 0.1116871
000140 d2 b3 63 bc fd 5e b4 3c 5b dc cd 3d 91 2d f0 3b
       -0.013897853 0.02201795 0.10051795 0.0073296507
000150 14 e1 5c 3d f5 a7 ba bd be 48 a6 3d fd 22 91 3c
       0.05392559 -0.091140665 0.08119343 0.017716879
000160 bd 54 0e be 3b fe c6 bb 48 b0 95 3b 85 53 43 3a
       -0.13899513 -0.006072787 0.0045681335 0.0007451105
000170 eb d7 71 bd 51 22 86 3d 2c c9 06 3e 97 26 ab 3d
       -0.059043806 0.06549514 0.13162678 0.0835697
000180 35 f4 c0 bc ff 55 07 be 9a 31 44 3d 76 9c 76 3d
       -0.023553947 -0.13216399 0.047898866 0.060207807
000190 97 c2 b7 3d 9d 0d 09 bc 47 bb d5 bd 14 01 de bc
       0.08972662 -0.008365062 -0.10436111 -0.027100123
0001a0 47 40 cc bd 74 7d 54 3d 7e f2 da bd 2c 56 ee bc
       -0.099731974 0.051877454 -0.10690783 -0.029093824
0001b0 68 21 c9 3d a8 1e 05 be ec 3c fe 3d f8 d6 84 3c
       0.09820825 -0.12999976 0.12413964 0.016215786
0001c0 94 fa 12 bd 6d 93 8c bb b2 4b 41 bd 27 49 da bd
       -0.0358835 -0.0042900355 -0.04719133 -0.10658484
0001d0 8a a7 eb bd 43 d6 4b 3c 03 89 e3 3d f3 d6 f6 3d
       -0.11506565 0.012441221 0.11110117 0.12052717
0001e0 e2 d2 b2 3d 6a 70 69 3d ca 17 ae 3d 26 96 8b 3d
       0.08731629 0.056991972 0.08500631 0.06815748
0001f0 60 38 32 3d 93 3d db bd 50 80 fc 3c bc 27 52 bd
       0.043510795 -0.10705104 0.030822903 -0.051307425
000200 92 f4 d5 bc 98 28 89 3d 2c 09 1f bc d7 3c 08 3e
       -0.026117597 0.06697196 -0.009706777 0.13304459
000210 32 47 e1 3d 7d 1d 46 3c e0 bf ec 3c ce 0a 03 be
       0.109999076 0.0120919915 0.028900087 -0.1279709
000220 35 7d 86 3d dc cc cd 3d cb 05 8e 3d 7b 56 c9 bc
       0.0656685 0.100488394 0.06934699 -0.02457737
000230 91 77 0b 3e b5 94 0c 3e d3 0a 1d 3d 50 58 0a 3e
       0.1361983 0.13728602 0.0383404 0.13510251
000240 60 7c d0 3d 25 4f 45 bc 57 98 45 bd 5f 87 91 bd
       0.10179973 -0.012042795 -0.048240986 -0.07105898
000250 67 18 f3 3a f7 2a 9d 3d af 03 26 be 76 96 e9 3d
       0.0018546701 0.076742105 -0.16212343 0.11405651
000260 35 d9 23 3c 03 6b 8d bd fb cb a1 b9 07 3f 4c bd
       0.010000517 -0.069051765 -0.0003086029 -0.049864795
000270 e4 78 04 bd 76 17 49 bd cb 52 e5 3d 27 4c 04 3d
       -0.032341853 -0.04909464 0.11197432 0.032299187
000280 99 ec ae bd e7 12 7c 3d 61 dd d1 3d a6 c5 ec bb
       -0.08541221 0.061541464 0.10247303 -0.00722571
000290 c7 81 91 3d 60 02 eb ba 62 9a c9 bd c2 31 00 bc
       0.07104831 -0.0017929785 -0.09843899 -0.007824363
0002a0 a3 88 a6 3d f5 7b de 3d 46 e2 35 bd c5 62 42 bd
       0.0813153 0.10863487 -0.044405244 -0.047457475
0002b0 fc 06 b4 bb b6 44 55 bd 56 bb aa bd 61 87 b9 3d
       -0.0054939967 -0.05206748 -0.08336513 0.090590246
0002c0 cf 03 03 bd 60 bb a8 bb e2 bf 0c be c7 9d af bd
       -0.031986054 -0.00514929 -0.13745072 -0.085750155
0002d0 fc a6 0d 3e 40 7f 13 3b 5a b1 30 bd 3e fd 86 bd
       0.1383323 0.0022506267 -0.043137886 -0.06591271
0002e0 20 0f cc bd 10 f5 fa bc 4e 7f 18 3e 00 33 62 bd
       -0.09963822 -0.030634433 0.14892313 -0.05522442
0002f0 6c 16 5f 3d 2d a5 36 bd 76 f6 3b bd 4f 27 7b 3d
       0.054464743 -0.044591118 -0.04588934 0.061316784
000300 76 56 c7 bd 94 90 9c 3d 8d 98 c4 bd 51 de 64 bd
       -0.09733288 0.076447636 -0.09599409 -0.05587608
000310 59 e6 83 3d 52 7b a7 bd b2 83 77 3c ee 9a ba bc
       0.0644042 -0.08177818 0.015107082 -0.022778954
000320 b2 e7 2d 3d 67 5b e3 3d 90 ba f1 3d 4d 94 d0 bd
       0.04245729 0.11101418 0.11803162 -0.10184536
000330 63 fa 15 be 7c d1 d7 3d 4a d3 be bc 96 ce 9b bd
       -0.14646296 0.10538003 -0.02329411 -0.076077625
000340 da 7a f4 3d 49 96 c2 3d 1b 36 57 3a d4 71 41 3d
       0.119374946 0.09501321 0.00082096615 0.047227696
000350 9d 7c 9a bc 29 af 17 3e fe 0a 94 bd 01 8d fa 3c
       -0.018858248 0.14812912 -0.07228659 0.030584814
000360 ae 40 95 bd 79 ff 0c be 8a c8 38 bd 2f 35 0d 3e
       -0.07287727 -0.1376933 -0.045113124 0.13789819
000370 e6 09 0d 3d 55 e2 26 3d 36 da d1 3d 2e 70 98 bd
       0.034433268 0.04074319 0.102466986 -0.074432716
000380 d4 59 4f 3d 2c e8 1a bd b6 98 bb bd b8 76 ba bd
       0.050622776 -0.037819073 -0.09159987 -0.09104675
000390 7d 0b 03 3e 8c 9c 0b bd 0e 37 40 3d 55 8c d0 3d
       0.12797351 -0.03408484 0.046927504 0.10183016
0003a0 f7 c4 df bc 2c 83 f5 3d e7 b8 b4 bd 35 f0 1d 3d
       -0.0273156 0.1198791 -0.0882433 0.038559157
0003b0 56 64 d2 bd b1 9e 3f 3d e6 82 96 3c ef 2a 13 3e
       -0.10273044 0.0467822 0.018372964 0.14371847
0003c0 d1 4b b8 3c 9a b1 c5 3c 62 f0 01 be 43 1b 64 bd
       0.02249709 0.024132539 -0.12689355 -0.05569006
0003d0 d6 6c ca 3d 7b cd 99 bc ff 1b 28 bd cd 87 b1 bd
       0.0988404 -0.018774739 -0.041042324 -0.0866848
0003e0 63 63 b9 bc 07 a7 c1 bd d8 c1 76 3d 71 1d 3d bd
       -0.0226304 -0.09455686 0.060243458 -0.046170656
0003f0 9d 6b a0 3d db 8c ad 3d 53 49 01 3e 1a 85 81 bd
       0.078330256 0.08474132 0.12625627 -0.06324215

rnn.Wh.weight f4 [256, 256]
000000 04 b6 04 bd a8 45 ea 3c 18 b9 6c 3c 91 2e 51 3d
       -0.032400146 0.028597668 0.014448427 0.0510698
000010 7b 12 e8 bb 4c 30 52 3d e2 f1 15 bd 36 9c 01 3d
       -0.007082281 0.05131559 -0.03660763 0.031643115
000020 dc 2f ba bb 4e 4b ca 3b 18 13 72 3d b0 5b 37 bd
       -0.005681975 0.006173528 0.05910024 -0.044765174
000030 76 32 0d 3d 4d 6c e3 bb 92 d6 ba 3c b6 75 01 bd
       0.03447195 -0.0069404007 0.022807393 -0.0316064
000040 d2 40 4b bc ae cf e4 bb 04 60 b9 3c 72 78 e9 bc
       -0.012405591 -0.006982765 0.022628792 -0.028499816
000050 62 f9 12 3d c9 e9 5e 3d 66 3b 13 3b 62 72 58 3d
       0.03588236 0.054422174 0.0022465824 0.05284346
000060 12 f6 6a bd b5 3a 5f 3d 3a 58 af bc 45 22 74 bd
       -0.057363577 0.054499347 -0.021404374 -0.059602994
000070 1a a1 34 3d 2a 9a af 3c fe 57 2e 3c da f4 84 bc
       0.04409895 0.021435816 0.010641096 -0.016230036
000080 7a 36 e6 3c 25 2c 08 3c ea 18 52 bd ac c4 3d bd
       0.028102148 0.008311306 -0.05129329 -0.04633014
000090 46 a7 9d bb fe 7b ae bc 60 6f 5b bc d2 19 72 3c
       -0.0048112003 -0.021299358 -0.013393253 0.014776664
0000a0 d0 75 92 bc 04 aa ad bc fe 0c 7a 3d a8 00 24 bb
       -0.017878443 -0.021199234 0.061047547 -0.0025024805
0000b0 08 8e 0b 3d 9c 43 e4 bc d8 b4 ce bc 7a f3 71 3c
       0.034071 -0.02786427 -0.025232717 0.014767522
0000c0 ee e3 5f bd 6d 89 75 bd e2 8d 7b bd f2 09 d3 bc
       -0.05466073 -0.059945513 -0.061414607 -0.025761578
0000d0 47 d3 38 bc 18 bc 53 bd 30 4b ad 3c 30 84 1f 3d
       -0.011280841 -0.051693052 0.021154016 0.038944423
0000e0 fc 44 2d 3c 36 6e 0d 3c c8 f3 e4 bc 02 be 95 3c
       0.010575529 0.008632233 -0.027948275 0.01827908
0000f0 be 14 1b bd b8 54 f4 3c e6 05 2d bd b8 79 4f bc
       -0.03786158 0.029825553 -0.042241953 -0.012663297
000100 82 fd 59 3d 39 dc 78 3d 4c 14 72 bd 21 79 9a 3b
       0.05322028 0.060756896 -0.059101388 0.0047141467
000110 cc 7b bf bc 82 62 6f 3d 92 d8 00 3d 3b 4b 97 3c
       -0.02337446 0.058443554 0.031456538 0.01846849
000120 ca d8 a5 3c de 95 6e bc 19 ea 0c bc e0 ed 09 3d
       0.020244975 -0.014562098 -0.008600735 0.03367412
000130 ca cb 03 bd 3a e1 47 bc 44 f8 4f bd 90 d3 1e bb
       -0.03217677 -0.012199694 -0.050773874 -0.0024234988
000140 5a 99 4e bd 1a a6 24 3d cd 72 ec 3c bc 4a 78 bd
       -0.050439216 0.04019747 0.028863335 -0.060618147
000150 a8 f0 82 bc 6a 52 0f 3d 44 8c 73 bd 6a 40 f1 bc
       -0.015983894 0.034990706 -0.05945994 -0.02944966
000160 50 fb 78 bc 4a ac 3e bd d5 49 71 3d 3c bd 13 3d
       -0.015196636 -0.046551026 0.058908302 0.03606914
000170 38 c8 67 3d f8 0f ea 3c 7e fa 0f bd c0 15 3b bd
       0.056587428 0.028572068 -0.035150997 -0.04567504
000180 d0 13 ba 3c 37 f0 f5 3c 00 81 42 b9 0a 07 91 bc
       0.022714525 0.03002177 -0.00018549338 -0.017703552
000190 4a b4 ae bc 30 3d 3b bd 3e 50 27 bd 5d 16 ab 3c
       -0.021326203 -0.04571265 -0.04084801 0.020884687
0001a0 56 fb 51 bd bf b0 5b bd ae 66 a3 3c c4 f6 0b 3d
       -0.051265083 -0.053635355 0.019946422 0.03417088
0001b0 66 68 4b 3c 7c ca ea 3b 0a 8d bb 3c 64 f0 d1 bc
       0.012415027 0.0071652513 0.022894401 -0.025627322
0001c0 5e 29 4c 3d 0e 6c 56 3d 72 fb 8d bc 10 a7 30 bd
       0.04984414 0.052349143 -0.017331813 -0.043128073
0001d0 46 e4 4f bd 44 e8 0c 3d 90 81 d2 3c d2 56 29 3d
       -0.050754808 0.034401193 0.025696546 0.041342564
0001e0 31 6f 63 3d 48 10 18 bc 7c 32 82 bc d4 45 eb 3b
       0.055525962 -0.0092812255 -0.015893213 0.007179955
0001f0 51 3a c5 bb 96 01 50 3d 00 b1 2a 3c 00 e4 57 bd
       -0.0060189147 0.050782762 0.010418177 -0.052707672
000200 53 cf 7b bd 69 5c fd 3c 26 3d 26 bc 55 f8 47 bc
       -0.061477017 0.030927854 -0.010146415 -0.012205203
000210 22 c7 2a 3d 7a 27 13 bd a8 78 2a 3c e2 43 bb b8
       0.041693814 -0.03592632 0.010404743 -8.929499e-05
000220 62 65 a5 3c f5 36 f7 ba 2a 55 56 3d 6c 9e 21 bd
       0.020189945 -0.0018860983 0.052327313 -0.039457723
000230 3a 7b 93 bc f6 e7 2b 3c 24 dc 2d bc b8 92 e1 bc
       -0.018003095 0.0104923155 -0.010611568 -0.027535781
000240 d6 cc 10 bd 88 d3 f6 bc 68 04 95 bc 38 ad 5f 3d
       -0.035351597 -0.030130163 -0.018190578 0.054608554
000250 1e 45 38 bd 04 2a b3 3b 4f dd 75 bd 42 65 1d bc
       -0.04498779 0.005467655 -0.06002551 -0.009606661
000260 2a 6c 69 3c 64 78 15 bd 80 c0 74 bd de 24 07 3d
       0.01424698 -0.036491767 -0.059753895 0.032994144
000270 3a 37 1e bd 84 ca 3b 3d ac de 05 bd 40 c7 02 bd
       -0.038626887 0.04584743 -0.03268306 -0.0319283
000280 86 ff 1f bc b7 9c 26 bd 7e ec 16 3d 30 f5 79 bc
       -0.009765511 -0.0406768 0.03684663 -0.015256211
000290 51 b9 fb 3c 7e c1 b1 3a e4 94 02 bc d4 eb 5a 3d
       0.030728014 0.0013561693 -0.007970069 0.05344756
0002a0 08 48 98 bc f2 c9 95 3c e2 67 56 bd 80 5d 49 bd
       -0.018589035 0.018284772 -0.052345164 -0.049161434
0002b0 e6 0e 09 bd 1c c3 0b 3d 8e 58 07 bd 86 8f 2a 3d
       -0.033461474 0.034121618 -0.033043437 0.04164078
0002c0 82 84 c1 3c b6 94 38 3d 7b e7 6a 3d a8 85 4e 3d
       0.023622755 0.045063697 0.057349663 0.050420433
0002d0 7a 36 93 bc 92 ab 1c bd 48 6c f0 3c 10 20 b6 ba
       -0.017970312 -0.03824956 0.029348508 -0.0013895053
0002e0 7a 1b 27 bd 80 7b 01 bd a4 61 2c bd 5c 6a 17 bd
       -0.040797688 -0.03161192 -0.042085305 -0.036966667
0002f0 b4 4a 1d 3d 9e 1a 0f 3d 0c 15 2e 3d e0 cb b0 bc
       0.03840132 0.034937494 0.04250054 -0.02158159
000300 44 9f 91 bc 57 91 66 bd 30 5a f6 bc 64 10 62 bd
       -0.01777614 -0.05629095 -0.030072302 -0.055191413
000310 a2 ce 2e 3d 82 a1 6b 3c 6b 92 52 3d 02 49 3c bd
       0.04267753 0.014381768 0.051409166 -0.045968063
000320 6e 4c 0c bd 2e a4 ca bc 96 44 56 3d 1d c6 23 ba
       -0.034252577 -0.02473649 0.052311502 -0.0006247478
000330 6e 55 64 3d 2e b7 1a 3d b0 9b 58 bd 28 db 4a bd
       0.055745535 0.03777235 -0.05288285 -0.04952541
000340 20 ac 13 3d ca 1f af bc 7e 2c a5 bc d0 2f e7 bc
       0.036052823 -0.021377463 -0.020162817 -0.028221041
000350 12 5c 3c 3d 36 c0 3d bd 1a 96 e5 3b 34 9f b3 3b
       0.045986243 -0.046325885 0.007006419 0.005481625
000360 f7 51 ee bc d4 5b f9 bc d0 3b 9b bc 52 96 77 3d
       -0.029091818 -0.030439295 -0.01894942 0.06044609
000370 f4 71 77 3d e2 6b 47 3c e0 d2 a3 3c 00 de c2 bc
       0.06041141 0.012171717 0.019998014 -0.023787498
000380 e2 22 04 bc 58 62 a1 3c a5 c0 2f 3c e2 3a 20 bd
       -0.008064957 0.019700214 0.010727082 -0.039118655
000390 a0 08 ba 3c a1 a9 58 3d a1 39 2b 3d 98 4c 41 bd
       0.02270919 0.052896146 0.041803006 -0.047192186
0003a0 1c 34 bd 3c 44 e7 0d 3d 12 a4 87 bc b0 fb c1 3c
       0.023096137 0.03464438 -0.016557727 0.023679584
0003b0 f2 4e 13 3d 6c f4 26 3d 4e fa 86 bc 7c 7b 9b bc
       0.03596396 0.040760443 -0.016476776 -0.01897978
0003c0 86 7e 84 3c a2 06 06 bd 80 20 3d bd 72 56 7e bc
       0.016173612 -0.03272117 -0.046173573 -0.01552354
0003d0 7c 04 6e 3d ec 4c 43 bd 6c a0 f9 bc 70 27 10 3d
       0.058109745 -0.04768078 -0.030472003 0.03519386
0003e0 ce 0f 14 bc 9c 99 34 bd 5e 60 3d bd 26 19 57 3c
       -0.009036971 -0.044091806 -0.04623448 0.013128554
0003f0 32 3b 1b 3d 90 3a 17 3d 53 d7 75 3d b8 06 9b 3c
       0.03789825 0.036921084 0.060019802 0.018924102

rnn.Wh.bias f4 [256]
000000 67 54 9f 3d b5 d8 ab 3d 59 82 7e 3c da cc d6 bd
       0.0777977 0.08390943 0.015534007 -0.10488291
000010 79 90 fd 3c 54 c2 82 bd 05 15 8f 3d 67 a0 75 3d
       0.030952679 -0.063847214 0.06986431 0.059967425
000020 46 2e 70 3d a6 49 0e bd 61 a4 12 3d 9d 3f 3a bc
       0.05863788 -0.034738205 0.035801295 -0.011367706
000030 cd d6 7d bd 79 0c 1f bd f7 3a 41 bd 08 7e cd bd
       -0.061972428 -0.038830254 -0.047175374 -0.10033804
000040 71 dd e7 3a 09 ee a6 3d d2 8e b1 bc 56 31 21 bd
       0.0017689896 0.0815087 -0.021674547 -0.03935369
000050 50 f1 9e 3c 2f a8 41 bc 5a 78 a4 bc f7 38 63 bc
       0.019402176 -0.011819883 -0.02007692 -0.013868562
000060 5c 8a 95 bd 11 3f e4 bd 9c fe 75 3d b2 61 95 3d
       -0.073017806 -0.111448415 0.060057268 0.072940245
000070 5b 1b d4 3c d2 cf 53 3d 82 1b c0 3d 14 76 c4 3d
       0.02589195 0.051711865 0.09380247 0.09592834
000080 32 55 bc 3d ca 08 c1 3c c1 a1 7c 3d 2c e4 33 bb
       0.09195937 0.023563761 0.061677698 -0.0027449233
000090 78 50 b9 bd ac 78 04 bc ec 09 d5 3d 05 c0 24 3d
       -0.09048551 -0.008085411 0.10402283 0.040222187
0000a0 a9 23 e4 bb 09 20 52 3d 68 e2 1c bd 32 ea 6f bd
       -0.006962259 0.051300082 -0.038301855 -0.058572955
0000b0 dc 37 63 bd 69 65 0b 38 ad 60 cf bd 82 20 b8 3d
       -0.055473194 3.3234628e-05 -0.10125861 0.089905754
0000c0 cf b0 dd 3c f1 f8 e8 bd 33 a8 6e 3d 87 a2 60 bc
       0.027061848 -0.11375607 0.058265876 -0.013710625
0000d0 02 52 e7 3d bd 84 c1 3c 7a b2 85 3d b1 15 97 bd
       0.112949386 0.023622865 0.06528182 -0.07377184
0000e0 18 1d cd bd d7 36 57 3d da 0c 86 bc 8c ca 69 3d
       -0.10015315 0.052542534 -0.01636355 0.05707793
0000f0 7e 72 14 bd 96 87 e5 bc 5e 02 74 3d 42 1d 9c bd
       -0.036242 -0.028018754 0.05957257 -0.07622768
000100 22 e6 a8 3d b6 41 81 3d 54 7c 65 bd c6 ee 90 3d
       0.08247019 0.063113615 -0.05602677 0.070767924
000110 0d 4e 89 bc f7 78 7b 3d 0e 97 8f 3d cf e4 31 3c
       -0.01676085 0.061394658 0.07011233 0.010857775
000120 79 11 3c 3c 8d 8b 9d bd cd 26 2e bd 4f fd 47 3d
       0.011478775 -0.07692633 -0.042517472 0.04882556
000130 e8 bd e5 bb 8a 7a 57 3d e3 a7 8f 3d 09 17 3d 3d
       -0.007011164 0.052607097 0.07014444 0.046164546
000140 6f 17 9a bd 69 ee a6 3d 93 15 5f 3d 37 24 d5 3c
       -0.07524001 0.08150942 0.054463934 0.026018245
000150 ad 08 50 bc 67 45 b5 bd e3 9c a9 3d 0f 5b 31 3d
       -0.012697381 -0.08851128 0.08281877 0.04329973
000160 54 48 7a bd 73 bd bc bd 05 ca 3c 3c e5 fb f3 3c
       -0.061104134 -0.09215822 0.011522775 0.029783199
000170 e7 01 95 3d e7 31 54 3d e1 39 c1 3d 65 d4 cf 3d
       0.072757535 0.051805403 0.09434868 0.10147933
000180 ce 3f 9e 3c 66 7d 39 3a eb 46 68 bd 4e 58 5d 3d
       0.019317534 0.0007075876 -0.056708258 0.054039292
000190 39 b1 60 3d 3d 74 aa 3b f6 56 af bd f6 c9 fb 3b
       0.054856513 0.005201845 -0.08561508 0.0076839877
0001a0 dd 6e bc bd 63 cc 0e bd 15 3f c5 bd 9e 84 81 3c
       -0.09200833 -0.034862887 -0.096311726 0.015810307
0001b0 5b cb 1c bc b9 12 c7 bc 82 4e 5f 3d 0f 69 b9 bd
       -0.009569968 -0.02430092 0.05451823 -0.090532415
0001c0 79 ac b7 bc 66 3c 9c 3d ae f4 e9 3c 43 98 e9 bd
       -0.022421109 0.076287076 0.028559055 -0.11405995
0001d0 08 e2 c6 bd 21 ca fe 3c 22 85 f9 ba 2b 9d bf 3d
       -0.09711081 0.031102242 -0.0019036869 0.09356149
0001e0 c9 ec 71 3d 5a 72 e9 3c eb d0 f5 3c d0 ab a8 3d
       0.059063707 0.02849691 0.030006846 0.08235896
0001f0 38 0a 85 3c 30 84 28 bd 26 b2 a8 3c 7e 48 e2 bd
       0.016240224 -0.04114169 0.02059276 -0.11048983
000200 98 be 90 bc cb 2a 98 3d df 0f 40 3c 88 5b 63 3d
       -0.017669007 0.07430037 0.011722534 0.055507213
000210 cd 16 49 3d ae 70 a0 bd b1 00 85 bb 6a 62 50 bd
       0.04909401 -0.07833992 -0.0040589203 -0.050875105
000220 6e 52 84 3d 8e 78 44 3c f6 ba df 3d 64 09 36 bd
       0.06461035 0.011991633 0.10924332 -0.04444255
000230 29 8f 2c 3d 78 0d af 3c fd 51 37 3d 12 e5 20 3d
       0.042128716 0.021368727 0.044755924 0.03928096
000240 81 1b 04 3d 24 65 1c bd c9 2c d5 bc 0f 3a f3 bd
       0.032252792 -0.038182393 -0.026022332 -0.11876308
000250 bb 34 72 bd 61 a6 b8 3d 14 f7 16 be 6b 56 67 3d
       -0.05913232 0.09016109 -0.1474269 0.0564789
000260 76 e0 9c 3d 08 5f 21 bc 3d 66 0a 3d b6 b7 c1 3b
       0.0766 -0.009849317 0.03378891 0.0059117926
000270 c6 9c 80 3d f5 7a 89 bd 51 9e ac 3d 81 1f fe 3c
       0.06279902 -0.06712905 0.08428634 0.031020882
000280 d3 00 c9 3c 95 a7 2d 3d 15 53 1c 3c 8c 20 7d 3b
       0.024536526 0.042396147 0.009541293 0.0038624136
000290 fd dd 98 3d 8f b3 bb bc 91 e7 2d bc ed 6a 80 bc
       0.07464216 -0.022912769 -0.010614292 -0.015675986
0002a0 8e 21 35 3d f1 af cd 3d 6f 89 76 3d ad f6 b1 3c
       0.044221453 0.10043324 0.06018966 0.02172407
0002b0 a8 3f 92 3c c0 11 8f bd 92 4a c2 bd 87 40 7d 3d
       0.01785262 -0.069858074 -0.094868794 0.061829116
0002c0 cf 69 bc bc f7 07 55 3d 7e 0d ba 3b 0b 95 9d bd
       -0.022999672 0.05200955 0.005677878 -0.07694443
0002d0 d8 fb e0 3d 3a a9 8a 3d 67 f5 21 3c 92 e4 7d bc
       0.109855354 0.06770559 0.009885169 -0.01549639
0002e0 c2 59 bf bd a3 1f ea bc 59 8b d5 3d bf 1d 6f bd
       -0.09343292 -0.028579539 0.10426969 -0.058377977
0002f0 b1 78 93 3c 41 f3 4b bc 4b 90 5b 3d d9 e8 d2 3d
       0.018001886 -0.012448133 0.053604405 0.102983184
000300 0b e1 d6 bc 46 dd 55 3d 48 0f 9a bd fd 63 19 3c
       -0.026230356 0.052212976 -0.07522446 0.009362218
000310 83 61 1a bd 0d c4 a2 3b b3 fa b0 bc 23 44 e6 bd
       -0.03769065 0.0049672187 -0.021603918 -0.11243465
000320 a6 16 a6 bd 80 90 89 3b 0a 34 52 3d 7e cd 41 bd
       -0.081097886 0.004198134 0.05131916 -0.047315113
000330 18 ac 02 be 50 24 74 3d 0c 55 7d 3c 4b 06 fd bd
       -0.12760961 0.059604943 0.015462171 -0.12354716
000340 5f df 9a 3d 65 73 00 3d 39 b7 64 3c 74 bd 15 3d
       0.07562136 0.03136005 0.013959699 0.03655763
000350 67 97 84 bd a6 44 25 3d 07 a1 73 bd bc 17 8f bd
       -0.0647419 0.04034867 -0.05947974 -0.06986949
000360 b7 91 0a bd 9a c2 82 bd 41 5f 97 3a 1f 62 d4 3d
       -0.03383037 -0.063847736 0.0011548774 0.103702776
000370 11 8d ad 3d 05 da c7 bd 61 04 d1 3d 2f 0e 31 bd
       0.08474172 -0.09758381 0.10205913 -0.043226417
000380 3c e5 14 3d 83 48 1e bd 64 8a ef bc 72 9e 52 bd
       0.036351427 -0.03864337 -0.029240794 -0.051420636
000390 81 1c b9 3d 81 52 67 bd 82 f1 6b 3d 7d 49 fc 3c
       0.0903864 -0.056475166 0.057603367 0.03079676
0003a0 1e d2 8c 3d 89 60 e9 3d 88 de 56 3c df 8c cd bd
       0.06876014 0.11395366 0.013114579 -0.10036635
0003b0 75 48 96 bb 23 d7 af bd 96 e3 64 bd 61 53 5d 3d
       -0.0045862743 -0.08585956 -0.055881105 0.054034594
0003c0 98 2c 9b 3d 61 a8 b6 bc f5 af 10 bd 51 e1 8a bc
       0.07576865 -0.022297086 -0.035324056 -0.016953142
0003d0 74 72 8f 3d d4 f4 a0 3d b1 34 9a bd 6d 50 9a bd
       0.07004252 0.07859197 -0.07529581 -0.07534871
0003e0 68 3e 2b bb b1 55 12 3c 52 de a0 3b 1a ae ea bd
       -0.0026129726 0.008931563 0.004909315 -0.114589885
0003f0 07 31 23 3d 5f 61 64 3d 16 4c 4d bb 64 ae 3d 3c
       0.039841678 0.055756923 -0.0031325868 0.0115772225

rnn.Wy.weight f4 [65, 256]
000000 22 4c b5 3d 7b 4e 02 bd 61 48 85 bd 20 b5 c3 bd
       0.08852412 -0.031813126 -0.06507946 -0.09556031
000010 df b4 96 3d bc fb 4c bd 09 80 6f 3d 0f a2 41 3d
       0.07358717 -0.05004476 0.058471713 0.04727369
000020 ef 15 fb bd b6 df 0f bd 96 ea d7 3d 17 d8 7e 3d
       -0.12260043 -0.035125457 0.105427906 0.062217798
000030 dc 01 d9 3c e3 ce 3a 3d 36 76 a8 bd 9c 26 3a bc
       0.026490144 0.04560746 -0.08225672 -0.011361744
000040 40 e3 a0 3c 87 00 40 3d 24 10 98 bd 42 e9 9a 3d
       0.019639611 0.046875503 -0.074249536 0.07564022
000050 a2 f2 d6 3d 08 c8 33 3d 98 40 da 3d 08 39 ba bd
       0.10495497 0.043891937 0.106568515 -0.09092909
000060 28 76 bf bc e7 5f ce bd 1e 92 fc 3a 08 3a be bd
       -0.023371771 -0.10076886 0.001926962 -0.09288412
000070 1b 2e d5 bc e6 e9 e9 bc 7c 4f e7 3c 42 39 85 bd
       -0.026022961 -0.028553914 0.028236143 -0.06505062
000080 ef db a0 3d 41 ba 1f bd 8b f6 a8 bc e9 a0 cd 3d
       0.07854449 -0.038995985 -0.020625373 0.10040457
000090 75 77 c7 bc 38 1d 27 bd b1 7c e9 3d ad 5b 61 bb
       -0.024348954 -0.04079935 0.11400736 -0.0034386918
0000a0 0a 89 bf 3d c3 e9 99 3d d7 3b cf 3d 83 b4 89 bd
       0.0935231 0.0751529 0.101188354 -0.06723883
0000b0 54 23 d2 bd 23 09 00 be 7f e1 82 bc 14 9b 00 be
       -0.102606446 -0.12503485 -0.015976666 -0.12559158
0000c0 ea a2 38 3d 3e f5 83 3a 7c 92 3f 3d 33 42 7b 3d
       0.045077242 0.0010067595 0.046770558 0.06134243
0000d0 c8 87 4b 3d 3a 39 ba 3d a2 f1 72 bc 83 ff e3 bc
       0.049690038 0.09092946 -0.014828118 -0.027831798
0000e0 9a 30 dd 3d 2e b4 d2 bc 9a 0f ca bc 9e 22 7e 3d
       0.10800286 -0.025720682 -0.024665643 0.062044732
0000f0 6d c0 8e bd 20 69 cb 3d d7 e3 a6 3d 27 23 e9 3d
       -0.06970296 0.099321604 0.08148926 0.11383658
000100 49 15 c1 3d ad f2 83 bd 44 f2 ed bd 27 c2 97 3d
       0.09427888 -0.06442771 -0.11618474 0.074100785
000110 66 39 bb 3d 36 04 a1 3c e7 3b 99 bc de 83 c3 3d
       0.09141807 0.019655328 -0.018705321 0.09546636
000120 ca d0 39 3c 5f ed a3 3d 1f 68 b3 3d 22 dc 54 3c
       0.011341283 0.08004259 0.08760094 0.012991937
000130 d6 37 80 3d 5d 06 56 bd ee 22 38 bc de ce 01 3e
       0.0626065 -0.052252162 -0.011238797 0.1267657
000140 5b 1a e6 3b fd b1 83 3d 60 7f 19 3d 01 6e 39 bd
       0.007022185 0.06430433 0.03747499 -0.045270924
000150 53 5f a7 3d 8a 7f d6 3d e5 d1 80 bd 0a fb 3b 3d
       0.081724785 0.10473545 -0.06290034 0.045893706
000160 2b 89 9b bd 35 0c 1d bd dd 9b e6 bd 9c e6 81 bd
       -0.07594522 -0.03834172 -0.11260197 -0.063428134
000170 93 ff a1 3d 7b 6f d7 3d da 43 b7 bd 65 bd f8 bc
       0.07910075 0.1051931 -0.089484885 -0.030363748
000180 fc b7 0e bc c1 10 b1 bd fa 70 b2 3d d7 dc e7 3b
       -0.0087108575 -0.08645774 0.08712955 0.0070758867
000190 23 ff ce bc df 5d f5 b8 34 35 aa 3d eb cc db bd
       -0.025268143 -0.00011699995 0.08310929 -0.107324444
0001a0 dc 8f 7e 3d d5 24 f5 3d 42 83 98 bd 61 79 01 bd
       0.062148914 0.11969916 -0.074469104 -0.031609897
0001b0 23 e9 18 be 7c c5 9a 3d 4e 0a 63 3d c4 9b f7 bd
       -0.14932685 0.075571984 0.05542975 -0.12090257
0001c0 93 a6 35 bd ba 24 29 3d 9a 44 d9 bd 4d fd 4e bd
       -0.04434831 0.04129479 -0.10608788 -0.050534535
0001d0 4f 9e ac bc c0 dc 43 bc d9 3e 73 bd ad 79 ba 3d
       -0.021071581 -0.011954486 -0.059386108 0.09105239
0001e0 73 c7 a3 3d 2b 9b c7 3d 48 d0 63 3d 7b 73 46 3c
       0.07997026 0.09746393 0.055618554 0.012112494
0001f0 74 29 c7 3d 89 d1 8b bd 3c 1b b8 bc b6 b9 da ba
       0.097247034 -0.06827075 -0.022473924 -0.0016687426
000200 c0 1e dc 3d d1 ac fb bd dc 86 86 3b 16 48 81 3d
       0.107480526 -0.122888215 0.004105432 0.063125774
000210 d7 67 85 bc af d6 b8 bd 2b 8f 41 bd 1a 86 a2 3d
       -0.016284866 -0.09025323 -0.047255676 0.07935734
000220 62 0c 3a 3d ee 39 c4 3d 43 2f 68 bd 39 04 07 be
       0.045421965 0.09581362 -0.056685697 -0.13185205
000230 21 e5 cc 3d 68 18 03 bd 25 32 aa 3d f5 b0 bc 3d
       0.1000464 -0.032005697 0.083103456 0.092134394
000240 92 6c b8 3d 8c 8a 85 bd fd 3d 83 bd 36 d4 d3 bc
       0.09005083 -0.06520566 -0.06408308 -0.025858026
000250 7b a2 f6 bc 5e aa 99 3d 88 bd 1d bd 3d a8 22 bc
       -0.030106774 0.07503198 -0.03851083 -0.009927806
000260 28 cf 91 bd fb 11 4d bd 9d 9c 6c 3d 7c de 1a 3d
       -0.0711959 -0.050065976 0.057766546 0.037809834
000270 20 e1 37 3d 49 ad ad 3c ae 5d 9f 3d 96 ff 39 3d
       0.04489243 0.021200793 0.0778154 0.04540976
000280 51 76 8e 3d 7b 88 ba bc f7 6f 91 bd 58 08 ed bd
       0.06956161 -0.022770157 -0.07101434 -0.11573857
000290 99 7b 2f 3d fc a1 47 bd 71 f3 47 3d ca 5d 95 bd
       0.04284248 -0.048738465 0.04881615 -0.072932795
0002a0 a1 9f 14 3e 97 ab ab bd cc 1d 48 3d d7 5c fc 3b
       0.14514019 -0.083823375 0.04885654 0.007701497
0002b0 39 8a 67 bd 08 c4 89 bc d7 b2 c7 3d 73 35 d7 3d
       -0.056528304 -0.016817108 0.09750908 0.105082415
0002c0 c6 5e 17 be 7f 54 c0 3c ce 80 d1 bd d4 1e 9e bc
       -0.14782247 0.02347779 -0.10229646 -0.01930181
0002d0 ea ca da 3d 61 6c b5 3d a9 c0 96 3c 13 8e d2 3d
       0.10683234 0.08858562 0.018402414 0.10281005
0002e0 28 82 50 bc fd d7 d5 bd d7 9e 8c bc ad a7 6f bc
       -0.012726344 -0.10441587 -0.017165584 -0.014627379
0002f0 5c 7f 8a bd 05 0b af bc 81 92 1d 3e 62 55 92 bd
       -0.06762573 -0.02136756 0.15387918 -0.07145192
000300 99 cf 92 bd 88 c9 d4 3d 88 6b 9a 3d ab 01 70 3d
       -0.07168502 0.103900015 0.07540041 0.05859534
000310 9b 2e dc 3b 1b 59 a0 bd 1e fc 42 bd 48 46 c8 3a
       0.006719423 -0.078294955 -0.04760372 0.0015279735
000320 b9 43 c7 bd 0d dd a4 3c e7 45 ab bd 52 f5 ae 3c
       -0.09729714 0.020124936 -0.08362942 0.021357212
000330 7d 94 e5 3c 3b 5b 90 bd 41 62 df 3d 47 0a 9f 3d
       0.028024906 -0.07048651 0.10907412 0.07765632
000340 1b 2d 81 3d 18 e9 97 bd 27 c0 c0 3d a8 99 6c 3d
       0.06307431 -0.07417506 0.0941165 0.057763726
000350 e2 2e ac bd 06 1e bf 3d 88 9f 47 3d bc 78 b0 3c
       -0.0840738 0.093318984 0.048736125 0.021541946
000360 69 32 d0 3d 7a 5f 99 bb 9d e6 ce 3d 84 c9 be 38
       0.10165865 -0.004680571 0.1010258 9.097441e-05
000370 2d 5c 11 bd 21 fc 7e 3c ef fd a9 bd c6 27 91 bd
       -0.035488296 0.015563042 -0.08300387 -0.07087664
000380 5b b4 45 3c 59 4b ad bd 9f aa 3d 3d 16 cf 4e bd
       0.012066926 -0.08461637 0.046305295 -0.05049046
000390 70 64 3d 3c 46 eb fc 3b 21 95 55 3d e9 af b1 3d
       0.011559591 0.0077184765 0.052144174 0.0867613
0003a0 9f c0 bb bd 55 08 d4 3b c4 87 9d bd e6 9b d2 bc
       -0.09167599 0.00647072 -0.07691911 -0.025709104
0003b0 6f f2 8d bd 0b 21 d8 bd 64 2c c2 bd ff bf ad 3d
       -0.06931006 -0.105531774 -0.09481123 0.08483886
0003c0 58 0b 76 bd ae cd 9f bc 94 da ce 3d 48 0f a3 bd
       -0.060069412 -0.019507255 0.10100284 -0.07961899
0003d0 0f a2 cd 3d 8a b8 d0 3c bb 35 c0 bd 1f 00 a4 bd
       0.10040676 0.02547862 -0.09385248 -0.080078356
0003e0 cc 7b 76 bd 90 56 cf bd 4f 82 bb 3d fa e4 cc bc
       -0.060176656 -0.10123932 0.09155714 -0.025011528
0003f0 7d c5 0e 3c 81 25 c6 3c e7 a3 c9 3d 6c bc 39 bd
       0.008714077 0.024187805 0.09845715 -0.04534571

rnn.Wy.bias f4 [65]
000000 5a c0 8c bb a9 4f f3 3c 93 a8 25 3c 4e 2c 87 bc
       -0.004295391 0.02970107 0.010110992 -0.016500618
000010 8a 7e 8b bd 9f 80 8c bd e5 11 72 bd 39 1b be bd
       -0.06811245 -0.0686047 -0.059099097 -0.09282536
000020 6b 31 d0 bd 0f 97 83 bd 35 6d 74 3b 06 13 dc bc
       -0.10165676 -0.064252965 0.0037296538 -0.02686454
000030 74 e9 c8 bd 87 84 bc bc 35 9e 0c 3b 5e 49 2f bd
       -0.09810153 -0.023012413 0.0021456603 -0.042794578
000040 43 20 6c 3c 11 bf 99 bb 43 d4 03 bd 75 c1 a0 bd
       0.014411989 -0.0046919663 -0.03218485 -0.07849399
000050 bc 7c aa bd a6 db 29 3d 03 17 67 bd 38 5b 57 bd
       -0.083245724 0.04146924 -0.05641843 -0.052577227
000060 8b 68 8f bd 72 0e 37 bd 5f db 6c bd 03 cb 98 3c
       -0.07002362 -0.04469151 -0.057826396 0.018651491
000070 d8 4d 80 bc b3 91 cb bd 9f 73 15 bd 14 6f ac bd
       -0.015662119 -0.09939899 -0.036487218 -0.08419624
000080 33 42 a0 bd b4 2e f4 bc 5c 20 90 bc da 02 30 bd
       -0.078251265 -0.029807426 -0.017593555 -0.04297147
000090 6a d6 f6 ba b9 49 82 bd 3a bd b8 bc 28 21 52 3d
       -0.0018832211 -0.06361718 -0.022551168 0.05130115
0000a0 c9 c0 20 bd 4b 50 9c bc f3 e3 91 3d f6 b2 09 3d
       -0.039246354 -0.019081255 0.07123556 0.033617936
0000b0 57 03 47 bd 77 dc a5 bd b1 0a 42 3d 92 ef b4 3d
       -0.04858717 -0.08098691 0.047373477 0.08834757
0000c0 38 a0 81 bd b5 f6 84 bd 2e d6 ca 3c 4c 85 5f bd
       -0.063293874 -0.06492368 0.024760332 -0.05457048
0000d0 51 45 9a bc 20 14 87 3d 62 a0 71 bd 4d 3e 87 bc
       -0.01883188 0.065956354 -0.058990844 -0.0165092
0000e0 b5 86 d4 3c f0 5b 84 3d bb c6 67 bb 79 b7 ed 3d
       0.02594314 0.06462848 -0.0035366255 0.1160726
0000f0 c6 e0 83 bd 27 09 91 bc 85 e1 d4 bc 6a 0d dd bc
       -0.064393565 -0.01770456 -0.025986442 -0.026983935
000100 0a 71 73 bd
       -0.059433974

encoding.weight f4 [65, 128]
000000 7f 32 f4 be 8c 0e 63 bf 91 3c 77 bf e1 3a 95 bf
       -0.47694775 -0.8869407 -0.9657679 -1.1658593
000010 ba 60 d2 bf 26 b4 c9 be 22 39 dd 3f 76 02 9e bf
       -1.6435769 -0.39395255 1.728306 -1.2344501
000020 7c 7f d6 3f 21 a6 07 bf be 0f be 3e 2d 74 4c 3f
       1.6757655 -0.5298787 0.37121385 0.7986477
000030 44 ff 8f bf c3 08 da be 24 c3 9d 3e 5e ac 81 bf
       -1.1249776 -0.4258481 0.30812943 -1.0130727
000040 ee 87 1e bf ad 3a 2f 3d 02 b2 6e bf e5 a7 b4 bf
       -0.6192616 0.042780567 -0.9324037 -1.4113737
000050 09 d9 17 3e c1 56 94 3f 02 31 26 bf 73 f3 9f 3f
       0.14828886 1.1588975 -0.6491853 1.249617
000060 2b 3d ad bd f4 a2 a2 be 9a ee 9e bf 62 a3 3d 3d
       -0.084589325 -0.31764948 -1.2416565 0.046298392
000070 7d b2 29 be 57 b1 2d be bd 52 ab 3f 76 ba 51 bf
       -0.16571994 -0.16962181 1.3384625 -0.8192514
000080 d3 18 c0 bf 0d 3f f7 3f 21 c4 89 3f d7 40 16 3e
       -1.5007576 1.9316117 1.0762979 0.14673172
000090 3a 8b 3b bd 66 23 bc bf d9 f4 c0 be 35 b9 53 3e
       -0.045787074 -1.4698303 -0.37686804 0.2067612
0000a0 4a 45 78 3f a5 62 98 3e 6c 48 06 c0 ad 3c 9b 3f
       0.96980727 0.2976276 -2.0981703 1.2127892
0000b0 c2 5a 4b be 1a 02 a4 3f 3a e4 3f bf f1 a0 66 bf
       -0.1985884 1.2813141 -0.7495762 -0.9008933
0000c0 51 35 34 c0 77 71 94 bd 4f 2d cd 3c dd a8 87 3f
       -2.8157542 -0.07248204 0.025046019 1.0598408
0000d0 7f 00 3f be 76 89 02 3d 32 cd fe 3e 9f 7f 72 bf
       -0.18652533 0.031869374 0.49765927 -0.94725984
0000e0 3b ff c6 3e 36 62 ab 3f f2 19 f0 3f 8d 87 8d be
       0.388666 1.3389347 1.8757918 -0.2764248
0000f0 3c 61 01 3c 53 3a 09 be ca 1f b9 bf 5b 70 1d 40
       0.007896718 -0.13401155 -1.4462826 2.4599826
000100 38 d3 7b 3f 6b dd 14 40 d0 88 6e bf 4f a0 c3 3f
       0.9836917 2.3260143 -0.9317751 1.5283297
000110 55 6f 84 3e 9b a8 c5 3e f3 78 b3 be 39 48 7d bd
       0.2586619 0.38605198 -0.35053214 -0.061836455
000120 77 6b 66 3f 0d a9 a3 3e 54 2f a9 bf 47 38 11 3f
       0.9000773 0.31964913 -1.3217568 0.567265
000130 ad a4 1f bf 93 d6 33 bd 5b b8 05 3b dd 45 5c 3f
       -0.6236065 -0.043905806 0.0020404074 0.860441
000140 8c 57 3b 3e b7 14 99 3e 08 e9 bf be ed a3 05 bf
       0.18295115 0.29898617 -0.37482476 -0.52203256
000150 1f 6b a3 3f a1 fd 64 bc 4c fd 41 bf 61 37 bf bf
       1.2767066 -0.0139764855 -0.75777125 -1.4938775
000160 fd 77 53 3f 5f 86 81 3f ed e1 4a 3f 61 d8 97 bf
       0.8260496 1.0119132 0.79250985 -1.1862909
000170 a9 03 69 3f 20 db d2 3c 61 02 90 3f 37 0b 89 3f
       0.9102121 0.025739253 1.1250726 1.0706547
000180 a2 7d f0 bd 78 18 7c bd 9d 87 b2 bf 92 34 bc bf
       -0.117427126 -0.061546773 -1.3947636 -1.4703543
000190 63 57 24 3f 23 84 28 3e 31 f9 96 3e 28 79 20 bf
       0.6419584 0.16456656 0.29486993 -0.6268487
0001a0 e0 3b fc be bc 5c b7 be fc e9 ab bf 26 97 cb 3e
       -0.4926443 -0.35812938 -1.3430781 0.39763755
0001b0 c3 b7 cf 3d 87 36 87 bf 05 ec 60 bf 08 10 3e ba
       0.10142472 -1.0563515 -0.8786014 -0.00072503136
0001c0 49 20 94 be 2c de 69 bf 0c af 1b be c9 ac 97 be
       -0.28930882 -0.9135463 -0.15203494 -0.29624012
0001d0 95 cf ce be 46 c8 b4 bf 8a ef fe 3d fd c4 37 3f
       -0.40392748 -1.4123619 0.12448032 0.71784955
0001e0 51 3f a1 bf 82 67 3e bd 2f d2 59 3e 2d 54 04 bb
       -1.2597448 -0.04648543 0.21271585 -0.0020191774
0001f0 3f 1b ac 3e 97 bd 05 3d 8e 26 09 40 23 3d 4a 3f
       0.33614537 0.03265151 2.1429782 0.7899954
000200 b5 0a 97 bf ff 37 94 3f ee 25 44 3f 64 12 18 3f
       -1.1800143 1.1579589 0.76620376 0.5940306
000210 88 af f8 3f e6 bd 50 be 6b 97 01 bf 56 31 8a 3f
       1.9428568 -0.2038494 -0.5062167 1.0796306
000220 10 fe 1b 3f 76 90 0a 3f 50 e8 42 3f 64 4f f6 3e
       0.60934544 0.5412668 0.7613573 0.48107445
000230 9f cc b2 3f 53 bb c4 3e ba 07 26 bf c0 94 b7 be
       1.3968695 0.38424167 -0.6485554 -0.35855675
000240 fd 96 d7 bf c0 7f 77 bf 8e 5a 45 3f 2b 14 8d 3f
       -1.6842953 -0.96679306 0.770913 1.102178
000250 3e 52 46 3f 4b cb ae 3f f1 3f 94 3f 20 fa a1 3f
       0.7746924 1.365579 1.1582013 1.2654457
000260 1e ac bc bd 18 af 96 3e 27 4e 73 3f 02 6d 24 bf
       -0.09212516 0.2943046 0.95041126 -0.6422883
000270 2f 90 aa 3f 74 de 76 be 1b 99 85 3f b1 07 86 bf
       1.3325251 -0.24108297 1.0437349 -1.0471097
000280 b4 40 e1 be c1 5f af bf 1e 31 71 3f d5 a9 f4 3e
       -0.43994677 -1.3701097 0.9421557 0.47785822
000290 83 d6 50 3f 6d a5 70 3f 62 39 e7 bc d1 e6 8a 3e
       0.8157732 0.9400242 -0.028225604 0.27129224
0002a0 67 ce 7e be a9 37 4b be d7 f6 7a 3e cb 9c 32 3d
       -0.24883424 -0.19845451 0.24508224 0.04360656
0002b0 bf c6 d5 3f a0 82 97 3e ef be b7 3e 3c 27 c5 be
       1.6701277 0.29591846 0.35887858 -0.38506496
0002c0 2f 5c 92 bf f4 ea 7a bf e4 63 9f bf be 4e 9f 3f
       -1.1434382 -0.9801476 -1.2452359 1.2445905
0002d0 8e 4f 4f bf a8 3c 15 bf b9 a4 31 3f 2c 1f ae bf
       -0.80980766 -0.5829568 0.6939197 -1.3603263
0002e0 46 02 3f bf 12 d6 10 c0 1c 0e a0 be 29 1f 1d bf
       -0.74612844 -2.2630658 -0.31260765 -0.6137567
0002f0 01 5d b2 3f ac 04 1c 3f 8f 6e 8e 3f 5a 5d 23 3f
       1.3934633 0.6094463 1.112749 0.6381432
000300 bb 7d 05 bf 8e b9 c6 3f 33 2f 2a bf ac 25 bf bf
       -0.52144974 1.5525377 -0.6647827 -1.4933372
000310 be ac 09 bf d5 87 10 3f fa d3 db bf 2c 17 6f bf
       -0.5377921 0.56457263 -1.7174065 -0.9339473
000320 fa 9c 98 be 5f 94 8f 3f ca 6d 20 40 15 b4 11 bf
       -0.29807264 1.1217154 2.506701 -0.5691541
000330 10 5c c5 bd cc 2e a5 be c8 5c a0 3f b6 ad c2 bf
       -0.096367 -0.32262266 1.2528315 -1.5209262
000340 2a 42 3b be 44 84 94 3f 49 ca 11 bf dc f4 c4 bf
       -0.18286958 1.1602864 -0.5694929 -1.5387225
000350 97 20 cc 3f 7a 2e 50 3d f6 d8 20 3f 97 bc ac be
       1.5947446 0.050825574 0.62831056 -0.33737633
000360 3b ec a1 bf f3 6d c6 bf 40 06 96 bf 80 11 9c bf
       -1.2650217 -1.5502304 -1.1720657 -1.219284
000370 03 26 06 40 75 3d 90 3f ed c2 b0 3f 38 91 df 3f
       2.09607 1.1268755 1.3809487 1.7466192
000380 81 bc 9a bf 0b a6 93 bf ac 9d c3 be 4f 0c 8e be
       -1.2088777 -1.1535047 -0.38206232 -0.27743766
000390 b9 0c c6 3f 73 d5 24 3f c5 a7 04 3f 2a 51 db bf
       1.5472633 0.643882 0.51818496 -1.7134144
0003a0 6c 16 01 40 96 d2 47 bd 1f f6 02 40 b1 c5 f4 bc
       2.0169935 -0.048784815 2.046272 -0.029879423
0003b0 ad 19 99 bf bb fe d9 bf 0b ef 04 be c1 7c 76 be
       -1.1960961 -1.7030863 -0.12981813 -0.24071027
0003c0 d4 67 68 c0 45 74 dc be cd 5d 5e 3f dd 52 8b bf
       -3.6313372 -0.43057457 0.8686188 -1.0884663
0003d0 2a 35 67 3f 6f 07 73 be 82 25 a6 3f 62 f5 88 3f
       0.90315497 -0.23733304 1.2980196 1.0699885
0003e0 9a 80 86 be 1f b9 4b 3e e4 de 8b bf f4 cc 7d 3f
       -0.2626999 0.19894837 -1.0927396 0.9914086
0003f0 bd 1f d4 be 80 61 1e bf 2a d3 57 bf 55 43 83 bf
       -0.41430464 -0.61867523 -0.84306586 -1.0254923
